checkpoints/avid-sea-233/avid-sea-233-epoch=04-train_loss=0.0000063-val_loss=0.0000958-val_mae=0.00985.ckpt (torch, 328097 bytes, 27 tensors)

encoder.weight_ih_l0 f4 [192, 2]
0.05800093 -0.07282961 0.031097723 0.12062606 -0.105228074 -0.02970578 0.13728976 0.04300498
0.14726837 0.10193407 0.06508019 0.11292513 0.03836873 0.1047176 0.0780731 -0.021887802
-0.0398049 0.08291502 0.208435 0.03618844 0.107190855 0.11323177 0.010283079 0.126163
0.15299554 0.009947215 0.19808532 0.015313018 0.041989215 -0.066982664 0.14716707 0.05567368
0.08591862 0.083496325 -0.07682613 -0.009050134 0.05437227 0.025239296 0.067636706 -0.038175933
0.072016254 -0.027596941 -0.026494414 0.08478855 -0.05233842 -0.1720197 -0.16949695 -0.13024352
-0.22120619 0.13352235 0.055525072 0.14019589 0.20184784 -0.13336734 0.060765676 0.0629164
0.25954995 0.25460902 -0.043861274 0.12624414 0.2153213 0.04686603 0.10545196 0.12630554
0.21268941 0.1445368 0.21626714 -0.0927168 0.07545302 0.12125943 0.02107511 -0.0629403
-0.21734484 -0.038675196 0.13642271 -0.2438646 0.21129936 -0.020086776 0.18348034 -0.040168922
0.12298134 0.05390531 0.16332158 -0.10463913 0.23149107 -0.09251179 0.08219299 0.25949943
0.15465948 0.04107543 0.21751514 0.11079654 0.03167632 0.04648372 -0.03501023 0.064569846
0.21507749 -0.08719329 0.2226199 -0.039617 0.20808446 0.12221769 -0.07295305 -0.21714653
0.14155285 0.088684194 -0.022636589 0.07728386 0.07899117 0.23797011 -0.0078798095 -0.19216925
0.11686859 0.09743999 0.26232708 0.06513523 0.1342586 0.099739015 0.16658378 -0.030814657
-0.0049914555 -0.10697081 0.12165471 -0.010727395 -0.020725416 -0.27501327 0.13522752 -0.06834714
0.30586234 -0.29145777 -0.14257185 -0.011317819 -0.05012576 -0.20016663 -0.03603749 0.050272275
-0.006358701 -0.20657298 -0.3042615 0.1585151 -0.24486557 -0.17189607 -0.22933012 -0.21048959
-0.12194509 -0.16090938 -0.32232508 -0.18724747 -0.11576163 -0.012245122 0.123796955 -0.19074762
-0.24795447 0.09460362 -0.07560552 0.105007574 0.06753875 -0.034670625 0.07854347 0.09120932
-0.37138733 -0.27850977 -0.036311384 0.27213833 -0.104001574 0.011754827 -0.18641752 -0.25506666
-0.05753084 0.34420794 -0.13495766 -0.027075771 -0.2167712 -0.039046697 -0.26842904 -0.42833057
-0.33589768 0.14818789 -0.17596033 -0.08177321 -0.3120236 0.013574337 -0.11218138 0.0889243
0.12475103 -0.059605658 -0.009560915 -0.23195928 -0.2643225 -0.039926965 -0.18796618 0.28723136
0.20457922 -0.13848351 -0.23460671 -0.21044803 -0.14617653 -0.3009544 -0.054082774 0.08406936
-0.35075945 -0.19912624 -0.16225962 -0.17715795 -0.20721415 -0.4789275 -0.3340807 0.09222136
-0.09216833 0.006621665 0.04437467 -0.17659199 -0.31206533 -0.25115457 -0.14059277 -0.17185949
-0.2814153 -0.07774894 -0.27791992 0.07878409 0.025764352 -0.16070376 -0.35012737 -0.03694547
-0.21486832 -0.09383464 -0.06145984 0.07989725 -0.0038550028 -0.22429535 -0.1834347 -0.40415615
-0.13797729 -0.07363768 0.03949251 0.035066165 0.04656995 0.21300636 -0.21431473 -0.1957981
-0.09954049 -0.0031789145 -0.18367703 -0.21155429 -0.09910101 -0.12106694 -0.10616792 -0.0044783396
0.027425459 -0.080861144 0.08457625 -0.088166535 0.047188204 0.93976367 -0.16496949 -0.18863547
00000000: 6292 6d3d b127 95bd a7c0 fe3c cc0a f73d
00000010: d181 d7bd 8959 f3bc b095 0c3e fd25 303d
00000020: 85cd 163e cfc2 d03d c348 853d 4a45 e73d
00000030: 8828 1d3d 2e76 d63d cae4 9f3d 0c4e b3bc
00000040: 760a 23bd 5acf a93d fc6f 553e 543a 143d
00000050: e186 db3d 0fe6 e73d 5c7a 283c e030 013e
00000060: ddaa 1c3e a5f9 223c e1d6 4a3e 74e3 7a3c
00000070: e2fc 2b3d 352e 89bd f7b2 163e 160a 643d
00000080: 1af6 af3d 1f00 ab3d 0557 9dbd 0347 14bc
00000090: 75b5 5e3d a4c2 ce3c 1d85 8a3d 5e5e 1cbd
000000a0: 427d 933d fb12 e2bc d00a d9bc 9fa5 ad3d
000000b0: d060 56bd ef25 30be 9c90 2dbe 8f5e 05be
000000c0: e083 62be 15ba 083e 426e 633d 838f 0f3e
000000d0: 33b1 4e3e 7391 08be 6ee5 783d 50da 803d
000000e0: bbe3 843e 1d5c 823e e1a7 33bd 2546 013e
000000f0: 307d 5c3e 98f6 3f3d 32f7 d73d 3d56 013e
00000100: 41cb 593e 7401 143e 2275 5d3e 4ee2 bdbd
00000110: 1d87 9a3d dd56 f83d b6a5 ac3c d8e6 80bd
00000120: a58f 5ebe e269 1ebd 65b2 0b3e a4b7 79be
00000130: dc5e 583e 068d a4bc 45e2 3b3e 2b88 24bd
00000140: a4dd fb3d d0cb 5c3d c63d 273e 0a4d d6bd
00000150: ff0b 6d3e d276 bdbd cc54 a83d 1cdd 843e
00000160: 0e5f 1e3e b63e 283d 4abc 5e3e 4ce9 e23d
00000170: 07bf 013d b765 3e3d e366 0fbd 323d 843d
00000180: 463d 5c3e 6592 b2bd 79f6 633e 6f45 22bd
00000190: 1814 553e 454d fa3d 6968 95bd a95b 5ebe
000001a0: 3bf3 103e 0fa0 b53d 5e70 b9bc 0047 9e3d
000001b0: 1fc6 a13d 70ae 733e 511a 01bc 04c8 44be
000001c0: cd58 ef3d 9e8e c73d bc4f 863e 9f65 853d
000001d0: 167b 093e f843 cc3d f094 2a3e 056f fcbc
000001e0: 5d8f a3bb 8313 dbbd 1b26 f93d f5c1 2fbc
000001f0: 59c8 a9bc 8ace 8cbe 1579 0a3e 96f9 8bbd
00000200: fd99 9c3e f439 95be 5bfe 11be 606e 39bc
00000210: ab50 4dbd 7bf8 4cbe 0c9c 13bd 4dea 4d3d
00000220: a65c d0bb de87 53be 2ac8 9bbe c851 223e
00000230: 0abe 7abe 8605 30be 84d5 6abe 958a 57be
00000240: 59be f9bd 6ec5 24be cb07 a5be cdbd 3fbe
00000250: 6f14 edbd c49f 48bc 4289 fd3d 5853 43be
00000260: c7e7 7dbe 8bbf c13d 11d7 9abd 360e d73d
00000270: c251 8a3d c902 0ebd 66db a03d f4cb ba3d
00000280: 7b26 bebe d598 8ebe 3fbb 14bd b755 8b3e
00000290: c7fe d4bd 5197 403c 3ce4 3ebe 1998 82be
000002a0: 75a5 6bbd 063c b03e 5732 0abe 02ce ddbc
000002b0: 45f9 5dbe 6eef 1fbd 886f 89be 254e dbbe
000002c0: c8fa abbe 91be 173e f22e 34be b678 a7bd
000002d0: 8fc1 9fbe e566 5e3c 5abf e5bd f21d b63d
000002e0: 787d ff3d 1025 74bd 62a5 1cbc bc86 6dbe
000002f0: 4755 87be 758a 23bd 357a 40be fd0f 933e
00000300: 377d 513e 9fce 0dbe be3c 70be b07f 57be
00000310: 4daf 15be b216 9abe e685 5dbd 8e2c ac3d
00000320: be96 b3be c0e7 4bbe 6327 26be e568 35be
00000330: f22f 54be fc35 f5be a00c abbe 8dde bc3d
00000340: c0c2 bcbd 8dfa d83b 37c2 353d 88d4 34be
00000350: 07c7 9fbe 5597 80be 8df7 0fbe effb 2fbe
00000360: ab15 90be d63a 9fbd 854b 8ebe 8e59 a13d
00000370: c30f d33c 878f 24be e543 b3be 2254 17bd
00000380: 7106 5cbe 602c c0bd 50bd 7bbd 2ba1 a33d
00000390: 37a4 7cbb aead 65be 4ed6 3bbe 8eed cebe
000003a0: eb49 0dbe 5acf 96bd e6c2 213d 8aa1 0f3d
000003b0: 22c0 3e3d 571e 5a3e 5275 5bbe 4c7f 48be
000003c0: e2db cbbd 5655 50bb d515 3cbe b0a1 58be
000003d0: 78f5 cabd f2f1 f7bd 916e d9bd 09bf 92bb
000003e0: 5bab e03c 879a a5bd 5036 ad3d a890 b4bd
000003f0: 6b48 413d 5a94 703f c3ed 28be a829 41be

encoder.weight_hh_l0 f4 [192, 64]
-0.24157375 0.122841366 -0.18968502 0.02422798 -0.09520725 0.23199518 0.09854415 -0.04426278
-0.1057611 -0.06852981 -0.025889456 -0.1875697 0.06921781 -0.11649001 -0.037313923 0.060820762
-0.17440583 -0.15395601 -0.058192167 -0.05699051 -0.0026591683 0.17092563 0.110182084 0.30966905
0.065123126 0.0013531143 -0.13155973 0.025383119 0.07562414 0.11935318 -0.11380454 0.13383405
-0.120582335 -0.10663368 -0.034715995 0.13722864 0.04901887 -0.013997217 -0.04679595 0.43998042
0.050786477 -0.08473963 0.018577142 0.08360064 0.12266376 0.09448182 -0.08995683 0.06468835
-0.041169118 0.19494088 0.118006825 -0.016503979 -0.0011726944 0.107085995 0.029697297 -0.19857308
-0.053382643 0.04944016 -0.02673642 -0.23566683 -0.16165893 -0.11177912 0.116219945 0.078978464
-0.18585879 0.21516907 -0.14597666 -0.041227736 -0.09283645 -0.075973496 0.066658534 0.10445843
0.07823848 -0.06548802 0.17674313 -0.18135665 0.13022129 0.026694858 -0.08460938 0.18000335
-0.15793538 0.15910697 -0.013270866 -0.12890595 -0.097245015 -0.10247835 -0.10564666 0.21916601
-0.15684457 -0.1960745 -0.05882342 -0.05720948 0.1837592 -0.03864523 0.024288425 0.06372514
-0.1750203 0.18301542 0.17162949 -0.012825633 0.46631902 0.11808887 0.08205947 0.16386329
-0.025422944 0.02154816 0.07284076 0.06980205 -0.064872764 0.07008567 -0.08245615 0.16316962
0.04272237 0.049985472 -0.122880176 -0.07828155 -0.043853108 0.20595832 0.020213308 -0.31837183
6.2960695e-05 0.010358486 0.121712685 -0.2218457 0.06534107 -0.122551024 -0.018786538 0.19471711
0.04674887 0.22228488 0.0011401817 -0.024764555 0.066617325 0.059878632 0.028738452 0.011018447
0.038788144 -0.22032589 0.044931363 0.04100151 0.21792474 -0.08611543 0.04352937 -0.09839321
-0.36108366 -0.048644375 -0.11219667 -0.45105752 -0.0014340038 0.10420783 -0.11443826 0.3296259
-0.12042691 0.01725215 -0.15296495 0.028691594 -0.029207638 0.5112323 -0.07308662 0.068394125
-0.048431437 0.08970859 -0.10961128 0.07355453 -0.323461 0.027323393 -0.08170348 0.39176023
-0.037407797 -0.0058684093 -0.019637449 0.042813353 0.052754838 0.040993024 -0.09169429 0.15803371
-0.10457667 -0.015478542 0.016037598 -0.124238186 0.08288278 0.09706567 -0.031628482 -0.4123059
0.096912295 -0.066819154 -0.13456309 -0.1514015 -0.122872666 -0.04132203 0.31922096 -0.06590909
0.10750803 0.1406752 -0.05016144 0.06355564 0.009615938 -0.21974471 0.11719991 -0.13958026
-0.07974762 -0.0156897 0.031853043 0.03197595 0.00066807825 -0.09059155 -0.013825999 0.008541767
0.12940273 -0.16858608 0.12793985 0.0539322 -0.06946375 0.07067786 -0.15288651 -0.036349796
-0.14089218 -0.073625065 -0.062060352 0.032745034 0.28163284 -0.12851751 -0.17475764 0.17226821
0.012009624 -0.110003464 0.087276414 -0.071269035 0.5293557 -0.04441902 0.15931013 -0.21145467
-0.034609586 0.01835217 -0.03579377 0.06586353 0.1356056 0.10285006 -0.053273078 0.21793962
-0.08886463 0.04084082 -0.026638627 -0.15335535 0.11410889 0.0042542913 -0.035399538 0.083053544
0.17393437 0.13857216 0.025577478 0.019869274 0.12200116 0.059698854 0.2092638 -0.07623095
00000000: 1c5f 77be 4194 fb3d ca3c 42be c279 c63c
00000010: 05fc c2bd 2590 6d3e 84d1 c93d e44c 35bd
00000020: 4799 d8bd 5b59 8cbd 2016 d4bc 4512 40be
00000030: 11c2 8d3d 5092 eebd 7cd6 18bd 311f 793d
00000040: 7197 32be a5a6 1dbe e95a 6ebd e26e 69bd
00000050: 7145 2ebb 2107 2f3e 25a7 e13d f18c 9e3e
00000060: 465f 853d fb5a b13a 98b7 06be 42f0 cf3c
00000070: d4e0 9a3d 716f f43d 5b12 e9bd cb0b 093e
00000080: dff3 f6bd c262 dabd 5c32 0ebd aa85 0c3e
00000090: 03c8 483d 9554 65bc 1cad 3fbd 1d45 e13e
000000a0: 7b05 503d f98b adbd 172f 983c d036 ab3d
000000b0: 2337 fb3d af7f c13d 493b b8bd 537b 843d
000000c0: f3a0 28bd 959e 473e 90ad f13d 5a33 87bc
000000d0: 18b5 99ba e74f db3d bf47 f33c be56 4bbe
000000e0: c2a7 5abd c481 4a3d 5606 dbbc a552 71be
000000f0: eb89 25be 74ec e4bd b904 ee3d 76bf a13d
00000100: c451 3ebe 4855 5c3e e87a 15be 6ade 28bd
00000110: 0921 bebd fe97 9bbd 4584 883d 4dee d53d
00000120: 7f3b a03d 951e 86bd 27fc 343e 8fb5 39be
00000130: bb58 053e 2daf da3c af47 adbd cc52 383e
00000140: d0b9 21be f0ec 223e 0c6e 59bc ecff 03be
00000150: 6528 c7bd 2be0 d1bd 475d d8bd 0e6d 603e
00000160: dd9b 20be c1c7 48be d4f0 70bd 7d54 6abd
00000170: 5f2b 3c3e 764a 1ebd 85f8 c63c 5482 823d
00000180: 8638 33be 6568 3b3e a4bf 2f3e 9b22 52bc
00000190: 5ec1 ee3e 94d8 f13d cc0e a83d c7cb 273e
000001a0: c743 d0bc c485 b03c 892d 953d 61f4 8e3d
000001b0: 03dc 84bd 1389 8f3d c5de a8bd f015 273e
000001c0: a7fd 2e3d 91bd 4c3d 9aa8 fbbd 1452 a0bd
000001d0: 519f 33bd bde6 523e 6196 a53c a201 a3be
000001e0: c409 8438 a4b6 293c 8044 f93d 852b 63be
000001f0: 8ad1 853d 08fc fabd 3ae6 99bc ec63 473e
00000200: be7b 3f3d a69e 633e 2672 953a 09df cabc
00000210: aa6e 883d 4c43 753d e76c eb3c b786 343c
00000220: 51e0 1e3d 1c9d 61be f309 383d 33f1 273d
00000230: aa27 5f3e 495d b0bd da4b 323d 6182 c9bd
00000240: f5df b8be 533f 47bd 5ec7 e5bd 03f1 e6be
00000250: 2ff5 bbba ea6a d53d 9b5e eabd bac4 a83e
00000260: 62a2 f6bd 6254 8d3c d8a2 1cbe a20a eb3c
00000270: db44 efbc 1fe0 023f 70ae 95bd 3812 8c3d
00000280: 0b60 46bd 23b9 b73d e17b e0bd c2a3 963d
00000290: ae9c a5be 4fd5 df3c 2754 a7bd cc94 c83e
000002a0: eb38 19bd c94b c0bb b7de a0bc 0e5d 2f3d
000002b0: 7515 583d 4de8 273d 37ca bbbd 97d3 213e
000002c0: 4b2c d6bd b699 7dbc 4861 833c 9770 febd
000002d0: 72be a93d 5eca c63d de8c 01bd c219 d3be
000002e0: f479 c63d 7bd8 88bd e8ca 09be ff08 1bbe
000002f0: aaa4 fbbd 4a41 29bd ee70 a33e 58fb 86bd
00000300: 2c2d dc3d 290d 103e 1576 4dbd 7629 823d
00000310: 2b8c 1d3c c204 61be 8206 f03d 21ee 0ebe
00000320: b852 a3bd b087 80bc 5678 023d 37f9 023d
00000330: f921 2f3a 1088 b9bd 7186 62bc c4f2 0b3c
00000340: 2682 043e d4a1 2cbe aa02 033e 03e8 5c3d
00000350: 0343 8ebd 8ebf 903d 488e 1cbe 86e3 14bd
00000360: 0a46 10be bdc8 96bd ff32 7ebd a81f 063d
00000370: 2e32 903e 189a 03be abf3 32be 1467 303e
00000380: 04c4 443c 7f49 e1bd fabd b23d 80f5 91bd
00000390: db83 073f b8f0 35bd 3222 233e 9387 58be
000003a0: c8c2 0dbd 4a57 963c 7d9c 12bd 75e3 863d
000003b0: 32dc 0a3e 0da3 d23d df34 5abd 902b 5f3e
000003c0: a9fe b5bd b448 273d 4039 dabc 2f09 1dbe
000003d0: ecb1 e93d 9567 8b3b 1bff 10bd fa17 aa3d
000003e0: da1b 323e dce5 0d3e dc87 d13c e3c4 a23c
000003f0: bfdb f93d c986 743d 4049 563e f91e 9cbd

encoder.bias_ih_l0 f4 [192]
-0.049768973 -0.0658715 -0.10591526 -0.029294176 0.16561939 0.020504626 -0.03275244 -0.16889387
-0.15431222 0.027066614 0.14592628 0.093897425 -0.03878993 0.14156637 -0.035082284 0.12984906
-0.0049373247 0.12161333 -0.104352586 0.15809429 -0.076706864 -0.0874111 0.04848567 0.11648281
0.009730949 0.102521524 -0.02751195 -0.062237103 0.21919861 -0.068260685 0.05562019 0.08925294
0.0045566442 0.06439743 0.06655727 -0.05533077 -0.07785633 -0.13776757 -0.10303392 -0.0074673207
0.057877555 -0.019905163 0.06536088 0.08010028 0.017530186 0.10857605 -0.11873265 0.07056666
-0.0329966 -0.10258327 -0.11876687 0.036688484 0.09998315 0.17676826 0.0045536547 -0.01686347
0.08224873 0.056298256 0.11886179 0.06718557 0.09181212 -0.042862948 0.063764416 0.11854805
0.1885652 0.0057060705 0.034614712 -0.120290875 0.05671939 -0.089362815 -0.14404033 -0.09424303
0.13511772 -0.061243214 -0.015920507 0.2233241 -0.13540491 -0.15768296 -0.030658279 0.012041363
-0.1784692 -0.14952065 0.12735005 0.11070803 0.12359773 0.06531536 0.0026078492 -0.06405916
-0.0460615 0.16240801 -0.2218662 0.073262505 0.06252145 0.17834255 -0.043630753 -0.14771137
0.1294336 -0.16066924 0.086581714 0.02564643 -0.18344584 -0.005048856 -0.022678355 -0.07151287
0.005310797 -0.019945374 -0.1431892 -0.22786893 0.012299867 0.03216311 -0.06603753 -0.041688763
-0.07295205 0.06725374 0.0116634555 -0.13899817 0.06553935 0.1414807 -0.15305626 -0.087367944
-0.14008504 0.09020958 0.04692804 -0.14238441 0.112335116 -0.020948775 0.028696574 -0.09735312
-0.0034125359 -0.097069144 -0.055748444 -0.09829031 -0.012628538 0.13648205 -0.060110107 -0.021761393
-0.05252271 -0.08173109 -0.18968639 -0.11958009 -0.06479719 0.09481127 -0.0040278304 -0.14421448
-0.011537861 -0.08921134 0.06576058 0.012447209 0.048607517 0.043845557 0.10744118 -0.07428116
0.12712324 0.112927295 0.09262093 0.052086055 0.05870323 -0.06839039 0.08029427 -0.007657258
-0.10041549 0.049025666 -0.05735423 -0.11706635 0.054112785 -0.037634164 0.16093421 -0.16925153
0.021614904 0.06971992 0.03855956 0.025354471 0.054968625 -0.09525657 0.14764075 -0.16099797
0.09275349 0.053642686 0.036869057 -0.07702394 -0.114706635 -0.0062937452 -0.049208496 0.17254388
-0.10740455 -0.12479705 -0.045181125 0.00701214 0.0012127445 -0.13049231 0.022827433 -0.17967588
00000000: 8dda 4bbd a3e7 86bd 1aea d8bd 57fa efbc
00000010: 2198 293e 51f9 a73c 6c27 06bd 84f2 2cbe
00000020: 0604 1ebe ceba dd3c b36d 153e 4b4d c03d
00000030: 31e2 1ebd c6f6 103e 71b2 0fbd 27f7 043e
00000040: 48c9 a1bb 6910 f93d cfb6 d5bd 78e3 213e
00000050: 7d18 9dbd 9704 b3bd e998 463d 8a8e ee3d
00000060: 8f6e 1f3c cef6 d13d be60 e1bc 55ec 7ebd
00000070: 9a75 603e 42cc 8bbd ffd1 633d 3fca b63d
00000080: e74f 953b cde2 833d 2e4f 883d 84a2 62bd
00000090: 2473 9fbd f112 0dbe 7303 d3bd 6db0 f4bb
000000a0: 0411 6d3d 2710 a3bc eddb 853d 9e0b a43d
000000b0: 779b 8f3c 1f5d de3d 1b2a f3bd 4185 903d
000000c0: 7127 07bd 2d17 d2bd 0b3c f3bd aa46 163d
000000d0: f7c3 cc3d bd02 353e d336 953b 4325 8abc
000000e0: 0672 a83d 0099 663d cf6d f33d 9798 893d
000000f0: fe07 bc3d 0f91 2fbd eb96 823d 52c9 f23d
00000100: 3c17 413e fdf9 ba3b 28c8 0d3d 105b f6bd
00000110: 9752 683d da03 b7bd 4f7f 13be 7d02 c1bd
00000120: 4d5c 0a3e 2ada 7abd b96b 82bc 13af 643e
00000130: 96a7 0abe a477 21be 1227 fbbc 2349 453c
00000140: a1c0 36be f11b 19be 0d68 023e e4ba e23d
00000150: cf20 fd3d 0fc4 853d 73e8 2a3b 7331 83bd
00000160: fcaa 3cbd 494e 263e e530 63be a70a 963d
00000170: 3f0b 803d 6e9f 363e 29b6 32bd a641 17be
00000180: 3e8a 043e 7a86 24be c151 b13d 7618 d23c
00000190: 3ad9 3bbe e070 a5bb f5c7 b9bc 5775 92bd
000001a0: 3206 ae3b 7b64 a3bc 31a0 12be 7956 69be
000001b0: 6285 493c 77bd 033d af3e 87bd d6c1 2abd
000001c0: e267 95bd 54bc 893d 1418 3f3c 8955 0ebe
000001d0: 7f39 863d 51e0 103e c8ba 1cbe f7ed b2bd
000001e0: 7472 0fbe cdbf b83d 9e37 403d 38cd 11be
000001f0: f40f e63d c49c abbc 1415 eb3c 1361 c7bd
00000200: daa4 5fbb 30cc c6bd 7b58 64bd 6e4c c9bd
00000210: ede7 4ebc f3c1 0b3e 0436 76bd f344 b2bc
00000220: 0e22 57bd a162 a7bd 263d 42be 68e6 f4bd
00000230: 64b4 84bd 692c c23d e4fb 83bb f6ac 13be
00000240: 4c09 3dbc 6fb4 b6bd 7cad 863d 61ef 4b3c
00000250: ad18 473d 6697 333d 1f0a dc3d b920 98bd
00000260: 982c 023e 6d46 e73d 0bb0 bd3d 3058 553d
00000270: cc72 703d 4310 8cbd 5271 a43d bce9 fabb
00000280: a3a6 cdbd 23cf 483d 45ec 6abd 7cc0 efbd
00000290: 5ea5 5d3d 4826 1abd f0cb 243e 4650 2dbe
000002a0: bd11 b13c 51c9 8e3d a1f0 1d3d 2eb4 cf3c
000002b0: c826 613d e015 c3bd 232f 173e a7dc 24be
000002c0: 8bf5 bd3d 6fb8 5b3d 0204 173d babe 9dbd
000002d0: 50eb eabd c33b cebb d98e 49bd 58af 303e
000002e0: ebf6 dbbd 9995 ffbd d80f 39bd 18c6 e53b
000002f0: f4f4 9e3a c79f 05be 9900 bb3c f4fc 37be

encoder.bias_hh_l0 f4 [192]
-0.068812266 0.05571859 -0.044040617 -0.048419297 -0.003164552 -0.12218307 0.085834906 -0.15463181
-0.10049327 0.12474359 0.11275062 0.10269151 0.09520878 0.0036651166 0.09788699 0.0013379367
0.06257046 0.010785118 -0.06934409 0.18828066 0.0954801 0.052556615 -0.108865544 -0.076063246
0.11878489 0.10999781 0.039352927 -0.06355075 0.2511548 -0.12287266 0.02827615 -0.008005133
0.19753827 0.092366755 -0.07482285 -0.10521945 -0.09358077 0.023705294 0.047340903 0.0956353
0.08555712 0.022983765 -0.1170559 -0.023413861 0.09455488 -0.07298528 -0.124809586 0.11907054
-0.021490745 0.018359222 -0.07344497 -0.12528342 0.06825808 0.1419525 0.05112051 -0.1163417
-0.010990717 -0.033499237 0.11317774 0.10321539 0.07640062 -0.013204645 0.035475343 0.15436256
0.24327461 0.05581421 0.010055879 0.10631562 0.1197994 -0.31285974 -0.07753804 -0.1189238
-0.027575582 -0.07636742 -0.13137048 0.09576812 -0.20519353 -0.11573595 0.14452918 0.13088176
-0.22864394 -0.024159778 -0.07603967 0.0064266957 0.2792566 -0.13073085 0.009645267 -0.1773971
-0.19028609 0.1553981 -0.105431385 -0.11419937 0.20196635 0.14224723 -0.050753575 -0.026178906
0.12690936 -0.056942236 0.08774156 0.024291659 -0.26282153 0.020207405 -0.008635797 -0.022064282
-0.074355744 0.13472559 -0.23304449 -0.17543878 -0.07008651 -0.1775174 0.006897548 -0.08926773
-0.10071261 0.06734419 0.035045523 -0.039327722 -0.004008915 -0.056893896 -0.08209235 0.06815534
-0.015101077 -0.1267249 0.0104338555 -0.12381259 0.0214689 0.07634467 0.11216038 0.0108521255
0.028849455 -0.16926582 -0.042133354 0.09508237 -0.0037984704 0.2141915 0.11194453 0.121024065
0.09237587 0.048423912 -0.21681665 0.10344616 -0.077748306 -0.12261435 -0.027499467 -0.10690314
0.14896154 -0.11705871 0.012700542 0.12316535 -0.1439847 -0.12375105 0.15582575 -0.18489943
0.09891532 -0.053729914 0.092755675 -0.11424172 0.11865703 -0.08382304 0.15457614 -0.042530004
0.03677682 0.048493307 -0.061258487 -0.06503544 0.04329992 -0.0121029075 -0.0014323195 -0.19564523
0.0011163985 -0.05417703 0.06517018 0.018511852 0.11737544 -0.008965239 -0.0023260838 -0.1488901
-0.06258711 0.08804133 -0.02151713 0.059833452 -0.077072404 -0.0342668 -0.14756125 0.14000525
0.0029720098 -0.015807271 0.026795572 -0.079763755 -0.09184175 -0.08060625 0.082423605 -0.011837799
00000000: 72ed 8cbd 2d39 643d ef63 34bd 5053 46bd
00000010: 5f64 4fbb 1e3b fabd 36ca af3d cd57 1ebe
00000020: 6acf cdbd 9179 ff3d cce9 e63d ed4f d23d
00000030: d2fc c23d 7432 703b f978 c83d b55d af3a
00000040: f124 803d 10b4 303c 4604 8ebd a5cc 403e
00000050: 128b c33d 9b45 573d e6f4 debd 0cc7 9bbd
00000060: 7e45 f33d 8846 e13d 8930 213d e526 82bd
00000070: 5d97 803e a9a4 fbbd 62a3 e73c f627 03bc
00000080: 7947 4a3e c82a bd3d b93c 99bd 4c7d d7bd
00000090: 46a7 bfbd 9b31 c23c 89e8 413d 71dc c33d
000000a0: 9238 af3d 7348 bc3c 01bb efbd 6dce bfbc
000000b0: fda5 c13d 4e79 95bd 2b9c ffbd 41db f33d
000000c0: 5c0d b0bc 1466 963c 516a 96bd 4c4a 00be
000000d0: e4ca 8b3d ff5b 113e bd63 513d 8f44 eebd
000000e0: 6912 34bc 7f36 09bd bbc9 e73d 9762 d33d
000000f0: ee77 9c3d 4c58 58bc 984e 113d 3811 1e3e
00000100: fb1c 793e 719d 643d 6ac1 243c 01bc d93d
00000110: 6359 f53d 272f a0be 44cc 9ebd 528e f3bd
00000120: 30e6 e1bc 8666 9cbd fc85 06be 1322 c43d
00000130: 411e 52be f806 edbd 75ff 133e de05 063e
00000140: a321 6abe baea c5bc b0ba 9bbd 0897 d23b
00000150: b9fa 8e3e 4fde 05be 2f07 1e3c 96a7 35be
00000160: 5bda 42be ae20 1f3e 69ec d7bd 5ce1 e9bd
00000170: 44d0 4e3e 42a9 113e fbe2 4fbd 2575 d6bc
00000180: 87f4 013e 433c 69bd d9b1 b33d 4dff c63c
00000190: 8b90 86be 008a a53c 287d 0dbc 27c0 b4bc
000001a0: d347 98bd 81f5 093e 37a3 6ebe 39a6 33be
000001b0: 8489 8fbd 1fc7 35be d404 e23b 00d2 b6bd
000001c0: 6a42 cebd c0eb 893d e58b 0f3d 1b16 21bd
000001d0: 375d 83bb 9309 69bd 0920 a8bd 0795 8b3d
000001e0: 826a 77bc 2cc4 01be c3f2 2a3c 7591 fdbd
000001f0: 8cdf af3c 985a 9c3d 57b4 e53d 1dcd 313c
00000200: b155 ec3c 0554 2dbe 0694 2cbd 8cba c23d
00000210: c2ef 78bb 0455 5b3e 2c43 e53d 77db f73d
00000220: 8f2f bd3d 2758 463d 2f05 5ebe 95db d33d
00000230: 813a 9fbd 3b1d fbbd 9046 e1bc 09f0 dabd
00000240: 6089 183e 7abc efbd ef15 503c 1d3e fc3d
00000250: ba70 13be 3171 fdbd c990 1f3e 4756 3dbe
00000260: 1e94 ca3d e613 5cbd b0f6 bd3d 90f7 e9bd
00000270: 7502 f33d 6aab abbd 3549 1e3e f133 2ebd
00000280: 4aa3 163d eba0 463d 2eea 7abd 4d31 85bd
00000290: 425b 313d 464b 46bc abbc bbba 3957 48be
000002a0: 1e54 923a bce8 5dbd f177 853d 2ba6 973c
000002b0: 8962 f03d f0e2 12bc 3671 18bb a576 18be
000002c0: ac2d 80bd 034f b43d b144 b0bc ec13 753d
000002d0: 23d8 9dbd 585b 0cbd 4c1a 17be 895d 0f3e
000002e0: 0dc6 423b 407e 81bc 6382 db3c 2e5b a3bd
000002f0: 8717 bcbd e414 a5bd b5cd a83d 54f3 41bc

decoder.weight_ih_l0 f4 [192, 1]
-0.05875663 -0.044267446 0.33657655 0.10519287 -0.027731352 -0.033166736 0.03870534 0.15589313
-0.030576164 -0.1973539 -0.11963853 -0.056630276 -0.051412866 -0.1661304 0.029048814 -0.0062686782
0.15098242 -0.103714325 -0.15690464 0.06584246 0.0031614054 -0.14415923 -0.15943654 0.119780965
-0.12036696 -0.19872434 0.033200298 -0.00011500249 -0.14736229 -0.05204472 -0.069856375 -0.06897013
-0.07432074 0.028370813 -0.09495958 0.0077415467 0.06950234 0.19216247 -0.16963692 -0.11409248
-0.06572914 -0.06542089 -0.24596207 -0.047949582 -0.103060395 -0.037430182 -0.008611974 -0.024299214
-0.25980425 -0.020013537 0.13577813 0.061359715 0.03156858 -0.028026838 -0.22155823 0.028344471
0.028159145 -0.001279503 0.05348426 -0.047822937 0.022764167 -0.12918545 -0.3025797 -0.07659685
-0.27240747 0.2208171 -1.1283046 0.20945968 0.30050355 -0.35736355 0.19060954 -0.26930037
0.07471459 -0.21517952 0.04214431 0.17463586 0.0675949 0.14153604 0.097085714 0.21497893
0.0645246 -1.444759 -0.023423865 -0.5097548 0.15355735 -0.20609328 -0.21566787 -0.21311547
-0.61063194 -0.027091421 -0.34096134 0.07793378 -0.6902909 0.21213548 -0.24588202 -0.03023094
0.24337426 0.05895755 0.25519273 -0.05981271 0.054760024 0.29864562 -0.3231231 -0.08250147
-0.050189424 -0.06476686 -0.088462755 0.44022864 0.30178392 0.043510523 -0.4654059 0.25840583
-0.67803025 0.24308173 -0.8857866 -0.025620902 0.30174536 -0.4114886 -1.9237025 -0.32419145
0.25029522 0.17212978 0.33931258 0.41745484 0.43809646 0.24971735 -1.1369876 0.018569745
-0.1130942 0.037907723 0.023273278 0.024441687 -0.0826362 0.13031317 -0.020318734 0.13327058
-0.02622264 -0.06542065 -0.015935296 0.07043379 0.03569495 -0.0789139 0.06710114 -0.19390845
-0.1609048 -0.16589801 -0.09884064 0.12053634 -0.002636369 -0.10903828 0.08657334 -0.14007881
-0.08519855 -0.10830777 0.11193034 -0.03783258 0.18344583 0.02571681 0.09836467 -0.16475895
0.082378544 0.03393293 0.054826185 -0.13230442 0.0139017105 0.05973433 0.09846637 0.10814334
-0.09572148 -0.15332644 -0.10936244 -0.021449022 -0.11221422 -0.09295631 -0.06826269 0.054472208
0.19579752 -0.036871314 -0.18144909 -0.215249 0.052209806 0.17136733 -0.16733861 0.16426685
0.12506373 -0.01120656 -0.072226845 0.013267291 0.017510243 0.06414897 -0.1612136 0.08121587
00000000: cbaa 70bd c851 35bd c353 ac3e 5c6f d73d
00000010: dc2c e3bc d8d9 07bd 7e89 1e3d 73a2 1f3e
00000020: dd7a fabc 2417 4abe 0c05 f5bd 26f5 67bd
00000030: 4c96 52bd 161e 2abe c7f7 ed3c 7c69 cdbb
00000040: 239b 1a3e 2d68 d4bd 9cab 20be 69d8 863d
00000050: 952f 4f3b 7a9e 13be 5543 23be b94f f53d
00000060: f482 f6bd 657e 4bbe 09fd 073d 7e2d f1b8
00000070: 24e6 16be d82c 55bd dc10 8fbd 3640 8dbd
00000080: 7935 98bd e869 e83c 2b7a c2bd cdac fd3b
00000090: 3e57 8e3d 3dc6 443e 4db5 2dbe 51a9 e9bd
000000a0: 009d 86bd 63fb 85bd 7bdd 7bbe c866 44bd
000000b0: 5411 d3bd 6450 19bd 3d19 0dbc 250f c7bc
000000c0: 1005 85be 6ef3 a3bc 6c09 0b3e 5354 7b3d
000000d0: 0e4e 013d 8a98 e5bc 29e0 62be aa32 e83c
000000e0: 02ae e63c ffb4 a7ba 5012 5b3d fce1 43bd
000000f0: eb7b ba3c 3149 04be baeb 9abe cfde 9cbd
00000100: fe78 8bbe e11d 623e 496c 90bf 997c 563e
00000110: 9adb 993e 5bf8 b6be 262f 433e bde1 89be
00000120: f703 993d 0558 5cbe 839f 2c3d bed3 323e
00000130: 326f 8a3d d3ee 103e e0d4 c63d 7023 5c3e
00000140: 7925 843d dded b8bf 68e3 bfbc 4a7f 02bf
00000150: 233e 1d3e 1e0a 53be 0ad8 5cbe f13a 5abe
00000160: 6052 1cbf d4ee ddbc 7c92 aebe bf9b 9f3d
00000170: e8b6 30bf 0b3a 593e 7fc8 7bbe e0a6 f7bc
00000180: 1a37 793e 797d 713d 9fa8 823e 2cfe 74bd
00000190: 0c4c 603d 14e8 983e 6470 a5be 88f6 a8bd
000001a0: 6d93 4dbd 7da4 84bd f62b b5bd a665 e13e
000001b0: 6c83 9a3e 1738 323d af49 eebe c54d 843e
000001c0: 6493 2dbf 6bea 783e e9c2 62bf ede2 d1bc
000001d0: 5e7e 9a3e a2ae d2be e23b f6bf 6cfc a5be
000001e0: b226 803e ca42 303e 61ba ad3e a4bc d53e
000001f0: 2e4e e03e e8b5 7f3e cf88 91bf 941f 983c
00000200: ef9d e7bd 2145 1b3d 9aa7 be3c ef39 c83c
00000210: 2b3d a9bd d170 053e 7973 a6bc 1578 083e
00000220: ddd0 d6bc 43fb 85bd bd8a 82bc 973f 903d
00000230: de34 123d 9c9d a1bd 536c 893d f08f 46be
00000240: 3ac4 24be 2be1 29be f66c cabd c2db f63d
00000250: efc6 2cbb 764f dfbd 5d4d b13d d270 0fbe
00000260: 947c aebd 77d0 ddbd bc3b e53d 56f6 1abd
00000270: 39d9 3b3e 0fac d23c 6b73 c93d 92b6 28be
00000280: 15b6 a83d 42fd 0a3d 6c91 603d cf7a 07be
00000290: 00c4 633c fcab 743d bca8 c93d 417a dd3d
000002a0: a009 c4bd 9b01 1dbe 6af9 dfbd dcb5 afbc
000002b0: 92d0 e5bd e15f bebd 4fcd 8bbd 401e 5f3d
000002c0: 257f 483e 6006 17bd cacd 39be 3c6a 5cbe
000002d0: f3d9 553d eb7a 2f3e d05a 2bbe 9235 283e
000002e0: b510 003e b89b 37bc abeb 93bd 0d5f 593c
000002f0: a471 8f3c 8960 833d 2e15 25be 8254 a63d

decoder.weight_hh_l0 f4 [192, 64]
-0.19645514 -0.08814847 -0.052943476 -0.1348913 -0.21676956 -0.013841749 0.12725277 0.022978373
-0.021605985 -0.0049792975 -0.21835817 0.08457537 0.091084845 -0.14559853 0.20307137 -0.15837742
-0.18298444 0.14628749 0.074227616 -0.13781066 0.22029245 0.30731514 -0.17103922 -0.08623449
0.165847 0.17394108 -0.028638545 -0.1314031 -0.33927086 0.08650698 -0.2888062 -0.20199332
0.087314315 -0.34147167 -0.22439554 0.20348163 0.21618457 0.29860178 0.18797171 0.16431022
0.06998651 0.12289351 0.0885579 -0.06906129 0.0730969 0.030488446 -0.1626134 0.03562267
-0.3747133 0.08668157 0.20928131 -0.2187642 0.052763022 -0.018347932 -0.05546372 0.34050018
0.1277948 0.22653578 -0.20278385 0.21376297 0.18094702 0.1666629 0.21224098 -0.1614581
-0.071065366 0.09145775 0.26542455 -0.0052325954 -0.10504598 -0.10629785 -0.016566828 -0.032018915
-0.1166854 -0.06999562 0.010388097 -0.03753606 0.066578284 0.018887341 -0.055125877 0.28644258
0.12843534 0.13122034 0.14332084 0.04695582 0.011775087 0.0077191824 -0.046544958 -0.010566714
0.007176213 -0.044263892 0.014689834 0.016097842 -0.17668968 0.011772705 0.06771217 0.0118627325
0.26471674 0.09570625 -0.014676967 0.02586207 0.05413662 -0.0056447755 0.08936689 0.0041768043
0.13303463 -0.07009602 0.14473343 0.099548064 -0.07760671 0.0513382 0.0991328 0.058334813
-0.28425986 -0.09144447 -0.11835457 0.13532344 -0.066021875 -0.01320905 0.41111875 -0.15962952
-0.037178185 0.037678 0.1230252 0.018385833 0.026033076 -0.08755387 0.04978196 0.022106828
-0.047432773 0.13074563 -0.13461977 0.63431543 0.26004618 0.18724854 -0.1213708 -0.09557359
-0.16607943 -0.18528958 0.15029876 0.033591453 -0.18887466 -0.029629478 0.06594877 -0.12076381
0.006275563 -0.105179735 -0.2713757 0.027460909 -0.26741722 -0.42652804 0.9431997 -0.045542426
-0.107960805 0.095648386 0.05701376 0.019644022 -0.14626047 0.0464068 0.22470364 -0.110718265
0.13693209 0.08585474 -0.030521965 -0.030945498 0.026787361 -0.04065619 -0.06788467 0.18336815
-0.11499938 -0.13159813 -0.11716286 0.021536136 -0.17511763 -0.40045777 -0.7777084 0.09723068
0.87567824 1.1892613 -0.07873687 -0.1868023 0.08407606 -0.05182371 -1.0481863 0.20725514
0.08011622 -0.18474726 0.025999038 -0.033302836 0.0719932 0.018572345 -0.35881197 0.28306535
-0.22410342 0.2571643 -0.3142245 0.28640765 0.21882124 -0.09296568 0.15367821 0.15010022
-0.16997854 -0.13627313 -0.11518478 0.25877005 0.05178563 -0.07675173 0.20305121 -0.24860999
0.009391083 0.09164037 -0.26161197 -0.19854565 -0.14379364 -0.10050311 0.041734263 -0.15594247
0.18636794 0.3851459 0.42802477 -0.28620723 -0.23338407 0.09559053 -0.098604254 -0.20448847
-0.2598008 -0.11401749 -0.55674064 0.23675627 0.013369072 0.17658831 0.10955117 0.033331536
0.053513177 0.29757416 0.15835439 0.09019924 0.39217332 -0.2133143 -0.17277871 0.091829866
-0.13107292 -0.17597991 0.066274144 -0.12725736 0.07439328 0.025825514 0.35323292 -0.22335744
0.18101667 -0.02002582 0.0068933745 0.049529143 0.23018527 0.23662844 0.36867476 0.2987383
00000000: 892b 49be 2f87 b4bd 42db 58bd f220 0abe
00000010: d7f8 5dbe 81c8 62bc 8d4e 023e 243d bc3c
00000020: 09ff b0bc 6029 a3bb 4999 5fbe da35 ad3d
00000030: b18a ba3d c817 15be f1f1 4f3e b12d 22be
00000040: 4660 3bbe 63cc 153e a604 983d 3d1e 0dbe
00000050: 5894 613e 6958 9d3e e824 2fbe b59b b0bd
00000060: ccd3 293e 9c1d 323e 629b eabc 898e 06be
00000070: e9b4 adbe 922a b13d 68de 93be 56d7 4ebe
00000080: d9d1 b23d 60d5 aebe f2c7 65be 7d5d 503e
00000090: 7d5f 5d3e 55e2 983e a87b 403e f040 283e
000000a0: 1655 8f3d 98af fb3d d85d b53d 0170 8dbd
000000b0: d4b3 953d e8c2 f93c 2184 26be 14e9 113d
000000c0: 6cda bfbe 1b86 b13d d74d 563e b903 60be
000000d0: 0a1e 583d 674e 96bc ed2d 63bd 0a56 ae3e
000000e0: a4dc 023e fff8 673e 92a6 4fbe aee4 5a3e
000000f0: 2d4a 393e aea9 2a3e b355 593e 4655 25be
00000100: b88a 91bd 334e bb3d bae5 873e 3176 abbb
00000110: 5922 d7bd b0b2 d9bd 28b7 87bc 4426 03bd
00000120: c1f8 eebd dd59 8fbd d632 2a3c 69bf 19bd
00000130: 325a 883d a0b9 9a3c accb 61bd 9aa8 923e
00000140: 8e84 033e a05e 063e b3c2 123e bf54 403d
00000150: 4bec 403c 32f1 fc3b eda5 3ebd 0320 2dbc
00000160: 7026 eb3b 0e4e 35bd a1ad 703c 9fdf 833c
00000170: 24ee 34be 4ee2 403c aeac 8a3d e85b 423c
00000180: f488 873e a301 c43d a977 70bc b1dc d33c
00000190: 5cbe 5d3d cff7 b8bb fd05 b73d 93dd 883b
000001a0: 3b3a 083e 818e 8fbd 0035 143e dbdf cb3d
000001b0: 44f0 9ebd 0148 523d 2306 cb3d 7cf0 6e3d
000001c0: 828a 91be 3d47 bbbd e163 f2bd 3a92 0a3e
000001d0: 7a36 87bd c56a 58bc 287e d23e ec75 23be
000001e0: 2748 18bd 3f54 1a3d a3f4 fb3d e39d 963c
000001f0: 5143 d53c 724f b3bd 2be8 4b3d 6119 b53c
00000200: de48 42bd 2fe2 053e c4d9 09be 7f62 223f
00000210: c624 853e 15be 3f3e 4191 f8bd 16bc c3bd
00000220: ba10 2abe 8dbc 3dbe ebe7 193e 3197 093d
00000230: 5c68 41be 85b9 f2bc 2610 873d 0453 f7bd
00000240: 3da3 cd3b 7968 d7bd c1f1 8abe b3f5 e03c
00000250: e9ea 88be e261 dabe 8975 713f b28a 3abd
00000260: 8e1a ddbd 4de3 c33d 4387 693d 80ec a03c
00000270: 4ec5 15be 0f15 3e3d b618 663e 42c0 e2bd
00000280: ed37 0c3e 9cd4 af3d 3309 fabc 6a81 fdbc
00000290: 2b71 db3c 1b87 26bd 1e07 8bbd dcc4 3b3e
000002a0: cc84 ebbd a9c1 06be 15f3 efbd 8d6c b03c
000002b0: 0952 33be cd08 cdbe e617 47bf e120 c73d
000002c0: 732c 603f b739 983f cc40 a1bd 1a49 3fbe
000002d0: 1230 ac3d 1945 54bd f82a 86bf b13a 543e
000002e0: f913 a43d 632e 3dbe effb d43c 8e68 08bd
000002f0: 2c71 933d 0825 983c 34b6 b7be f1ed 903e
00000300: 5e7b 65be 0aab 833e 09e2 a0be 06a4 923e
00000310: ad12 603e ca64 bebd d25d 1d3e dfb3 193e
00000320: db0e 2ebe 2f8b 0bbe ffe5 ebbd 827d 843e
00000330: 2b1d 543d 0330 9dbd a8ec 4f3e 9e93 7ebe
00000340: 0fdd 193c f2ad bb3d 01f2 85be 8d4f 4bbe
00000350: a43e 13be 93d4 cdbd 8cf1 2a3d 62af 1fbe
00000360: 3dd7 3e3e d831 c53e 1026 db3e c189 92be
00000370: 3cfc 6ebe f8c4 c33d 07f1 c9bd 6d65 51be
00000380: 9c04 85be 0082 e9bd 8e86 0ebf 3c70 723e
00000390: f409 5b3c 91d3 343e 5d5c e03d a686 083d
000003a0: a230 5b3d a45b 983e a727 223e 61ba b83d
000003b0: f1ca c83e 106f 5abe e7ec 30be 4c11 bc3d
000003c0: fb37 06be 1434 34be bdba 873d c14f 02be
000003d0: 815b 983d 0790 d33c f2da b43e d0b7 64be
000003e0: 6f5c 393e 300d a4bc d1e1 e13b 12df 4a3d
000003f0: b0b5 6b3e ba4e 723e f0c2 bc3e 3af4 983e

decoder.bias_ih_l0 f4 [192]
0.16399254 -0.0069841775 -0.021019097 0.15944472 0.13382404 0.10927014 0.19260862 0.11171961
0.026651802 0.11351901 -0.044476405 0.01816266 0.040558025 0.09966692 0.13109222 0.1136561
0.08459149 -0.07266581 -0.098081954 -0.01711477 -0.03826622 -0.06918041 0.12319993 0.17523216
0.00616178 0.003595813 -0.07435455 0.047660578 0.070921935 0.1413479 0.036008228 -0.04406231
-0.013421785 0.003960733 -0.015642462 0.00050190283 0.2068674 0.15840918 0.084622264 -0.10433582
0.00074759056 -0.0075346623 -0.109122306 0.18232022 0.07453494 -0.01340421 -0.15463205 0.0605048
-0.039171886 0.062312476 0.22721413 0.047577064 0.05238151 -0.06255316 0.012163268 0.043941278
0.07117345 0.09994513 0.02797803 -0.0022242027 0.010741581 0.10439195 -0.14665641 -0.11271726
0.10856782 0.22883107 0.16961807 0.2158599 0.4327904 0.22970936 0.33824924 -0.68042684
0.4347298 0.1645688 0.30285272 0.32096398 0.43706986 0.09137745 0.25732982 0.0937425
0.109918654 0.29636475 0.21550342 0.45629135 0.22823068 0.18619235 0.43453833 -0.8343721
-0.7566302 0.13359259 0.17417452 0.0964172 -1.0985348 -0.07381293 0.1048187 -0.82824045
0.053695474 0.31901833 0.40105963 0.22547013 0.4463225 0.057449102 -0.2136369 0.25170332
0.37187627 0.1396257 0.24859007 0.3238169 0.22414613 0.20335211 0.019027019 0.24558271
-1.0604559 0.16470967 -0.37012592 0.58270764 0.22091164 -0.90444666 0.31663632 0.2897641
0.1562897 0.32606307 0.26827255 0.1975734 0.27731153 0.25976512 -0.899073 0.30219075
-0.25306338 -0.068057224 0.0582851 0.015865726 -0.095444 -0.011260524 0.036189094 0.078570455
0.14088294 -0.13664275 0.019897815 0.10889868 0.033087984 -0.16146398 0.123732075 0.03553698
-0.013140974 0.096388966 0.067188814 0.1739997 0.1422498 0.14549366 -0.029794458 -0.068212934
0.09738162 0.06918964 -0.14014235 -0.14875486 -0.10068105 0.053709008 -0.11497428 -0.07856247
-0.017201006 -0.07058917 0.04297559 0.0746489 0.033182472 0.08750118 0.04295266 0.099627204
0.053236865 0.12118141 0.12772793 -0.14644034 -0.11073742 0.050407212 -0.029041653 0.04783989
-0.07564773 0.05459512 0.14005363 0.000496885 0.121496186 0.027001098 -0.020116778 -0.009960194
0.09511068 0.009676614 0.084379025 -0.020822987 -0.0667471 0.05455054 0.1354217 -0.09829455
00000000: a9ed 273e 87db e4bb 3e30 acbc 7a45 233e
00000010: 2b09 093e 06c9 df3d 323b 453e 40cd e43d
00000020: e154 da3c a87c e83d e42c 36bd dcc9 943c
00000030: 2c20 263d 2c1e cc3d 0a3d 063e 88c4 e83d
00000040: 4e3e ad3d d0d1 94bd 31df c8bd 4634 8cbc
00000050: 0abd 1cbd 75ae 8dbd 3f50 fc3d 0f70 333e
00000060: c2e8 c93b bba7 6b3b 3347 98bd bd37 433d
00000070: 853f 913d 81bd 103e 5d7d 133d ae7a 34bd
00000080: 0ce7 5bbc 09c9 813b 9f24 80bc 2192 033a
00000090: 0cd5 533e 0436 223e 704e ad3d 05ae d5bd
000000a0: f4f9 433a 54e5 f6bb 847b dfbd 27b2 3a3e
000000b0: c6a5 983d 559d 5bbc dd57 1ebe e2d3 773d
000000c0: b372 20bd 5e3b 7f3d d2aa 683e 2be0 423d
000000d0: ff8d 563d df1b 80bd 7248 473c c5fb 333d
000000e0: 63c3 913d 08b0 cc3d 2e32 e53c eec3 11bb
000000f0: 75fd 2f3c 72cb d53d 192d 16be 4fd8 e6bd
00000100: ce58 de3d b152 6a3e 5cb0 2d3e 610a 5d3e
00000110: b496 dd3e ee38 6b3e 012f ad3e 7430 2ebf
00000120: e894 de3e b984 283e 830f 9b3e 6455 a43e
00000130: 9fc7 df3e 1a24 bb3d bcc0 833e 11fc bf3d
00000140: 081d e13d 1fbd 973e eeac 5c3e 059f e93e
00000150: 4eb5 693e 35a9 3e3e cf7b de3e 6999 55bf
00000160: 84b2 41bf 7fcc 083e ce5a 323e 6276 c53d
00000170: ca9c 8cbf 3c2b 97bd 30ab d63d 9107 54bf
00000180: c9ef 5b3d 5f56 a33e b057 cd3e a4e1 663e
00000190: 6284 e43e c04f 6b3d a2c3 5abe 42df 803e
000001a0: 9166 be3e 0afa 0e3e 658e 7e3e 54cb a53e
000001b0: 9086 653e 893b 503e 8dde 9b3c 097a 7b3e
000001c0: 05bd 87bf a7a9 283e 2581 bdbe 542c 153f
000001d0: a936 623e d189 67bf 281e a23e f65b 943e
000001e0: 680a 203e bdf1 a63e 055b 893e ae50 4a3e
000001f0: c7fb 8d3e efff 843e a629 66bf bfb8 9a3e
00000200: 8691 81be 9661 8bbd 5bbc 6e3d d7f8 813c
00000210: 2578 c3bd 107e 38bc 043b 143d 8ce9 a03d
00000220: 9e43 103e 14ec 0bbe be00 a33c 4506 df3d
00000230: 4487 073d d056 25be 3e67 fd3d 398f 113d
00000240: 3d4d 57bc 9467 c53d 4a9a 893d fa2c 323e
00000250: eea9 113e 4afc 143e 8213 f4bc 39b3 8bbd
00000260: 0470 c73d 4cb3 8d3d 7a81 0fbe 3253 18be
00000270: de31 cebd fafd 5b3d a377 ebbd 5ce5 a0bd
00000280: 20e9 8cbc 0e91 90bd 2c07 303d 86e1 983d
00000290: 58ea 073d d233 b33d 21ef 2f3d 5909 cc3d
000002a0: e60e 5a3d f62d f83d 1ccb 023e 75f4 15be
000002b0: 4dca e2bd cb77 4e3d c3e8 edbc c3f3 433d
000002c0: 32ed 9abd 229f 5f3d 386a 0f3e 6341 023a
000002d0: fed2 f83d 6831 dd3c f1cb a4bc 1530 23bc
000002e0: 63c9 c23d a98a 1e3c e9ce ac3d f894 aabc
000002f0: b4b2 88bd 6370 5f3d fcab 0a3e a74e c9bd

decoder.bias_hh_l0 f4 [192]
0.16480301 -0.10409442 0.0770996 0.0443665 0.10034472 0.05088583 0.16059835 -0.035077058
-0.009903036 0.09201957 0.114957064 -0.01747266 0.10011661 -0.020865552 -0.08535853 0.013963344
-0.037479036 0.084459126 -0.070701025 -0.23584183 -0.07536094 0.1027471 0.06289193 0.055645216
0.014800584 0.025063382 0.029544177 0.08458188 -0.07170564 0.13850819 0.015035248 -0.17552501
0.025414705 -0.02902172 -0.19717655 -0.00960702 0.028813357 0.22393315 -0.0112099 -0.022269875
0.0043600868 0.12285494 -0.11747372 -0.018978596 -0.07357477 0.08187678 -0.024086356 -0.018749138
-0.099268004 0.19138776 0.251262 -0.03418279 0.012975756 -0.08499366 -0.1187865 0.0146593675
0.19979876 0.14971335 -0.06562645 -0.037942894 0.011268445 0.12732181 -0.17053542 -0.13028318
0.11857108 0.052452035 0.29336593 0.3148386 0.43805805 0.08773827 0.3780198 -0.64748824
0.47240323 0.16874745 0.18513831 0.33686826 0.44797748 0.0047769467 0.3388739 0.08057804
0.23840079 0.42785633 0.2866759 0.28340578 0.1206536 0.14234148 0.27447945 -0.72464365
-0.7288384 0.32340932 0.3266472 0.25493678 -1.0061351 -0.14352551 0.039637133 -0.74723405
0.15696864 0.29605666 0.51676184 0.24498804 0.37777048 0.1317682 -0.35250455 0.2912913
0.27088812 0.19824529 0.11857502 0.3735703 0.3842669 0.34027365 0.082905404 0.16661932
-0.90627074 0.33461037 -0.26001066 0.48130658 0.13824753 -0.85051525 0.23087858 0.2924871
0.100773096 0.12849267 0.18058243 0.3203348 0.3636767 0.24210007 -0.87860465 0.27015245
-0.08239893 0.04307405 -0.060631864 0.08934069 0.0862102 -0.056876507 -0.06938706 -0.13641101
0.0085848 -0.012283684 -0.02403591 0.003763633 0.14015785 -0.01505233 -0.022390867 -0.019566985
0.07075053 -0.02096682 0.046238225 0.17591995 0.10631501 0.12795594 0.05231431 -0.112184234
0.16188596 0.13349771 0.09877808 -0.14495167 0.013359869 0.109459646 0.005559784 -0.08756144
-0.14609174 -0.09133299 -0.018642532 0.12367744 0.096387886 -0.029207904 0.07890682 -0.00237025
0.112750076 0.015234986 -0.012052162 -0.15541054 0.098855585 -0.0005245834 -0.08164057 0.116166286
-0.017280469 0.047639806 0.047567464 -0.015900299 0.11978603 0.021126805 0.0699018 0.03312378
0.008936229 0.066037185 -0.07794641 0.051184643 0.115090944 0.12919621 0.14367548 -0.020833515
00000000: 1fc2 283e 752f d5bd 65e6 9d3d a6b9 353d
00000010: 8881 cd3d a96d 503d e573 243e f6ac 0fbd
00000020: 5840 22bc c274 bc3d 9c6e eb3d d322 8fbc
00000030: f009 cd3d 3cee aabc 74d0 aebd 82c6 643c
00000040: 9e83 19bd e8f8 ac3d b3cb 90bd 8580 71be
00000050: d656 9abd 126d d23d 7ccd 803d 3dec 633d
00000060: 267e 723c b951 cd3c a106 f23c 4439 ad3d
00000070: 68da 92bd 17d5 0d3e 6756 763c d4bc 33be
00000080: 8032 d03c f5be edbc a6e8 49be c366 1dbc
00000090: fd09 ec3c bb4e 653e baa9 37bc 506f b6bc
000000a0: 0fdf 8e3b 5f9b fb3d 1096 f0bd 0079 9bbc
000000b0: 5eae 96bd 03af a73d c050 c5bc cb97 99bc
000000c0: 064d cbbd 27fb 433e 6aa5 803e 4103 0cbd
000000d0: 4498 543c 2811 aebd 5646 f3bd d82d 703c
000000e0: 0c98 4c3e 754e 193e 2967 86bd 026a 1bbd
000000f0: 499f 383c a660 023e d6a0 2ebe f468 05be
00000100: 65d5 f23d f2d7 563d 0f34 963e 8632 a13e
00000110: 2549 e03e 1fb0 b33d d08b c13e cac1 25bf
00000120: d6de f13e 22cc 2c3e e694 3d3e ff79 ac3e
00000130: 4e5d e53e ef87 9c3b e180 ad3e 1906 a53d
00000140: 561f 743e fc0f db3e 2fc7 923e 901a 913e
00000150: 3c19 f73d f7c1 113e 9288 8c3e 3f82 39bf
00000160: 2795 3abf e895 a53e 4d3e a73e 1387 823e
00000170: 09c9 80bf 5af8 12be 8c5a 223d bb4a 3fbf
00000180: 63bc 203e bd94 973e 814a 043f 25de 7a3e
00000190: 226b c13e 3eee 063e 7a7b b4be 2224 953e
000001a0: d9b1 8a3e d000 4b3e 76d7 f23d 9b44 bf3e
000001b0: a2be c43e 5938 ae3e 4fca a93d 419e 2a3e
000001c0: 5c01 68bf 0d52 ab3e 1e20 85be d16d f63e
000001d0: c390 0d3e 5ebb 59bf 6f6b 6c3e dfc0 953e
000001e0: 2062 ce3d 9593 033e 9aea 383e ec02 a43e
000001f0: d533 ba3e 15e9 773e 3cec 60bf 6c51 8a3e
00000200: c5c0 a8bd 6a6e 303d 1e59 78bd 40f8 b63d
00000210: f98e b03d 57f7 68bd ce1a 8ebd 54af 0bbe
00000220: 43a7 0c3c 8141 49bc f5e6 c4bc 49a7 763b
00000230: 8a85 0f3e 0c9e 76bc 0d6d b7bc f14a a0bc
00000240: a7e5 903d 9cc2 abbc 4b64 3d3d 5c24 343e
00000250: afbb d93d e206 033e 8847 563d d9c0 e5bd
00000260: 6fc5 253e a0b3 083e 294c ca3d 366e 14be
00000270: 5ae3 5a3c 612c e03d d92e b63b 6a53 b3bd
00000280: 1399 15be ca0c bbbd 39b8 98bc 994a fd3d
00000290: 0367 c53d 6a45 efbc e699 a13d 3256 1bbb
000002a0: 83e9 e63d 2a9c 793c 6e76 45bc f123 1fbe
000002b0: cc74 ca3d 3284 09ba 2c33 a7bd 97e8 ed3d
000002c0: c58f 8dbc f521 433d 1ad6 423d 5841 82bc
000002d0: 6152 f53d 1f12 ad3c ad28 8f3d cdac 073d
000002e0: 4369 123c 813e 873d 5ea2 9fbd fda6 513d
000002f0: cdb4 eb3d 034c 043e aa1f 133e 0cab aabc

output_layer.1.weight f4 [1, 64]
-0.0396396 -0.040441886 -0.070190504 -0.05103059 -0.028502263 -0.01490082 0.087828785 -0.026462201
-0.028492264 -0.06684719 -0.06509446 0.09306676 0.09837568 -0.061635893 0.08211591 -0.074035354
0.028921526 -0.0853385 0.09441106 -0.0056474493 0.11647796 0.098637074 -0.07666121 0.031393822
0.12152325 0.09094188 -0.070276655 -0.100593954 -0.083637096 0.074168906 -0.0020701848 0.045114443
0.00385168 -0.06131753 0.0074147875 0.036758035 -0.0517872 0.06026289 -0.050421596 -0.09759385
0.08902584 0.042842247 0.01870766 0.01867914 -0.00044607563 0.031511735 -0.017682627 0.041360848
-0.0699525 0.06675057 0.04126221 0.03486566 0.04578367 -0.11281041 0.022847248 0.047303088
0.03474256 0.101792835 -0.040880695 0.00048192078 0.1139592 0.09528844 0.14434153 -0.090323314
00000000: 225d 22bd 64a6 25bd 0ac0 8fbd 7405 51bd
00000010: 947d e9bc 9222 74bc 94df b33d 42c7 d8bc
00000020: 9c68 e9bc 2ee7 88bd 3f50 85bd c999 be3d
00000030: 3079 c93d eb75 7cbd 632c a83d d99f 97bd
00000040: d6ec ec3c f4c5 aebd 965a c13d 3d0e b9bb
00000050: ff8b ee3d 3c02 ca3d 8d00 9dbd cf96 003d
00000060: 2fe1 f83d bd3f ba3d 35ed 8fbd 3404 cebd
00000070: ed49 abbd dee5 973d f0ab 07bb ecc9 383d
00000080: 786c 7c3b 1728 7bbd bff7 f23b 988f 163d
00000090: d11e 54bd 38d6 763d e086 4ebd 49df c7bd
000000a0: 2e53 b63d 5a7b 2f3d ce40 993c ff04 993c
000000b0: 42df e9b9 7312 013d 28db 90bc fe69 293d
000000c0: 4243 8fbd 86b4 883d 9002 293d 4bcf 0e3d
000000d0: a887 3b3d 2509 e7bd 272a bb3c e2c0 413d
000000e0: 374e 0e3d c378 d03d 8472 27bd 50aa fc39
000000f0: 7163 e93d 9626 c33d 44ce 133e 6efb b8bd
